vaee/vae_model.pth (torch, 220496 bytes, 14 tensors)

encoder.0.weight f4 [128, 50]
000000 07 42 c2 bd 5e 6b 75 bc 3a ca 07 be 2f e1 70 bd
       -0.0948525 -0.014979212 -0.13260737 -0.0588085
000010 09 b6 db bd 7e 79 82 bd 79 8f 2c 3d c1 a4 49 bd
       -0.1072808 -0.06370829 0.042129014 -0.049229387
000020 0d 9c 5c 3d c9 fe e1 bd ac 00 2d 3d 2c 33 85 bd
       0.05385976 -0.110349245 0.04223697 -0.06503901
000030 8b 82 d9 bd 28 2a 18 bd 02 91 62 3c c8 ca 32 bd
       -0.10620602 -0.03714958 0.013828518 -0.04365042
000040 74 da cd bc eb de de 3c 93 34 04 bd 3b 1f 20 3d
       -0.02512858 0.027205905 -0.0322767 0.039092284
000050 15 9c ed 3d c3 18 18 be 6d 1c c7 bd b2 d3 bc 3d
       0.11602036 -0.14853196 -0.09722219 0.09220065
000060 a0 91 20 be 09 d7 c6 3d 3c 48 6c 3d 16 b2 fc bd
       -0.15680552 0.097089835 0.057686076 -0.12338655
000070 94 6a ed bd 05 ff c4 3c 3f a5 a1 bc 63 a0 c6 bd
       -0.11592594 0.024047384 -0.019732116 -0.0969856
000080 2f 88 da 3d ed bf 27 be 6c c3 cd bc 30 a1 22 be
       0.10670506 -0.16381808 -0.025117598 -0.158818
000090 3f c8 04 bd e0 d9 09 bd 74 18 03 3d 77 83 b4 bd
       -0.032417532 -0.033655047 0.032005742 -0.088141374
0000a0 44 57 88 bd c0 d8 0c be 43 5f b6 3d 02 18 2f 3d
       -0.066572696 -0.13754559 0.089048885 0.042747505
0000b0 6d b4 49 bc 32 b7 a9 3d 6e 21 56 bd a1 e4 bf 3c
       -0.012311083 0.08286895 -0.052277975 0.023424448
0000c0 72 6f de bc 47 2a d1 3d c1 00 b5 3d 4f f3 b2 3c
       -0.02715275 0.10213142 0.088380344 0.021844534
0000d0 2e f2 0f 3e 9f 3a f6 bc a7 f5 3b 3d fe ab e2 3d
       0.14057228 -0.03005725 0.04588857 0.11067961
0000e0 d9 0f 6a bd cf 8f 9e bd 13 ff 12 3d ea 80 c7 3d
       -0.05714402 -0.07742273 0.03588779 0.09741385
0000f0 49 ba 6e 3d 1e 2e 16 3e c8 d3 ce 3d 72 57 5c 3d
       0.058283124 0.1466603 0.10098988 0.05379433
000100 e7 88 ad 3c 2c c0 08 3e fb cd 3d 3b d9 7c cd bd
       0.021183444 0.13354558 0.0028961885 -0.100335784
000110 3d 51 01 be aa 8b fe bd ef c3 02 bd fa df dd bc
       -0.12628646 -0.124289826 -0.031925138 -0.02708434
000120 58 14 dc 3d 4d e8 d7 bd 95 74 fd bd d5 66 c6 bd
       0.10746068 -0.10542355 -0.12375752 -0.096875824
000130 6c 22 bb 3c 1a ad ba 3d 43 86 0f bd d7 42 c2 3d
       0.022843562 0.09115048 -0.03504015 0.09485405
000140 ce 95 ee bd 95 8f 8a 3d 11 f4 81 bc 42 b9 27 ba
       -0.11649667 0.06765667 -0.01586345 -0.000639815
000150 41 cf f2 3b ca 9d 8c 3d 18 52 b6 bd 7f 2a 48 3d
       0.0074099605 0.068660334 -0.08902377 0.048868652
000160 a0 3a 0c 3e cc 82 15 3e e2 ee e7 bd 7a e4 b4 3d
       0.13694239 0.14600676 -0.1132486 0.08832641
000170 3c 74 ef 3d 76 43 a0 3d f0 13 b2 bd 60 79 54 bc
       0.11692092 0.07825367 -0.08695209 -0.012968391
000180 f4 fa db bd df a5 eb 3d c1 26 b5 bc c1 29 0e 3e
       -0.10741225 0.11506247 -0.022113206 0.13883115
000190 ef c4 ad ba bb f5 0f be 1f 38 c4 bc 9c 34 9a bd
       -0.0013257543 -0.14058582 -0.023952542 -0.07529566
0001a0 93 b6 93 3d d4 01 8a bc df cf b0 bd 4e a6 07 be
       0.07212558 -0.016846575 -0.08633398 -0.13247034
0001b0 03 6a ab 3d 75 6f ec bc e1 3f 4d 3d 61 a0 23 3d
       0.083698295 -0.02886174 0.050109748 0.03994787
0001c0 41 2a bb bd 58 be fd bd 67 58 b4 bd 69 02 a8 3d
       -0.09138919 -0.12389821 -0.08805924 0.08203585
0001d0 de 3f 1a be ca fd 7b 3c 81 a8 20 be 04 e1 44 3b
       -0.15063426 0.015380332 -0.15689279 0.0030041346
0001e0 e5 61 9b 3d be 6e 67 3c ac ba 0c be 8a 9d 9a 3d
       0.07587031 0.014125524 -0.13743085 0.075495794
0001f0 e6 90 ba bd 05 8e c6 bc 43 ff d0 bd 3d 6a 3e bd
       -0.091096684 -0.024237642 -0.10204937 -0.046488035
000200 35 36 f3 3d dd ca 00 be 60 82 2d 3d 88 b9 88 bc
       0.118755735 -0.12577386 0.042360663 -0.01669003
000210 47 49 fe 3d b7 1d 16 be aa 23 de bd f0 94 a9 bd
       0.1241632 -0.14659773 -0.10846646 -0.08280361
000220 99 27 52 bd cd e7 bf bd 98 19 ee bd 51 fc 2d 3d
       -0.051307295 -0.09370384 -0.11625975 0.042476956
000230 7f d0 df bb d0 a4 6c 3d c4 22 0c be 3e a7 2f bd
       -0.0068302746 0.057774365 -0.13685137 -0.042884104
000240 d9 a9 21 bd f8 83 67 3d bc 31 8d 3c 50 0a de 3d
       -0.03946862 0.05652234 0.01723563 0.10841811
000250 7e ee a2 3d 05 d4 44 3c 60 6d 28 3d b2 fe 82 3d
       0.07955645 0.01201344 0.041119933 0.063962355
000260 34 bb 59 3d 6e 92 ea bd 67 57 8d bd 76 0a 91 3d
       0.053157046 -0.114537105 -0.06901436 0.070820734
000270 6d c8 e9 bd 01 d4 34 bd f3 a2 11 3c 9e 97 02 bd
       -0.11415181 -0.044147495 0.008888948 -0.031882875
000280 8e 5b 09 3e 49 77 fc 3d 60 c3 8d bd 3d 30 a4 bd
       0.13413832 0.12327439 -0.069220304 -0.08017013
000290 de 87 cd bd 88 50 c7 3d 2e 91 f4 3d aa b2 14 bd
       -0.1003568 0.09732157 0.11941753 -0.0363032
0002a0 e9 63 b8 3c 3b aa 29 3b bf de f2 3d 18 a4 03 3d
       0.022508578 0.0025888819 0.11858892 0.032138914
0002b0 58 4e 0d 3e 90 88 0e bd b6 1a b9 3d f5 db 67 3d
       0.13799417 -0.034798205 0.09038298 0.05660625
0002c0 7a ec 3d bc f9 6a 8e bd 13 ec 8b 3c 53 33 b0 3d
       -0.011592025 -0.06953997 0.017080342 0.08603539
0002d0 d1 9d b6 3d f7 ca ef 3b da 31 04 3d 84 08 0d 3e
       0.0891682 0.0073178965 0.032274105 0.1377278
0002e0 66 28 eb 3d 23 68 e8 bd a7 0e b4 bb 18 76 d9 bd
       0.11482315 -0.113479875 -0.0054949108 -0.10618228
0002f0 60 3a 96 3d 2b 92 1d bd f8 72 74 3d 3d cc 91 bd
       0.07335353 -0.038469475 0.059679955 -0.071190335
000300 c5 a4 84 ba 17 c3 8d 3d a4 e3 03 3e a2 36 c8 3b
       -0.0010119906 0.06921976 0.12879807 0.0061100284
000310 85 bd 54 3d 4d fc b4 bd a7 bd 91 bd aa 31 0d 3d
       0.051938552 -0.08837185 -0.071162514 0.03447119
000320 ab 94 1a 3e 48 8e 08 3e bd e8 39 3e 91 b4 89 bd
       0.15095775 0.13335526 0.18155189 -0.067238934
000330 d3 bd b2 3d 5d 76 5c ba ca 04 1c 3e a8 fd 46 bc
       0.08727612 -0.00084099715 0.15236202 -0.012145437
000340 b3 4d f0 3c 7c 35 49 bd 63 fa f7 3d f7 9c 11 3e
       0.029333925 -0.049123272 0.12108304 0.14220034
000350 3e a6 d2 3d 78 81 88 3b 21 eb 4c 3d 25 45 1f 3e
       0.102856144 0.0041658245 0.050028924 0.1555372
000360 23 c3 95 3d 2b e9 d4 bd 13 ed 96 3c 9d 5e ee bc
       0.0731261 -0.10396036 0.018423593 -0.02909785
000370 17 d4 c9 3c a7 7b 9a b9 fd a9 a2 bd 1b 26 19 bd
       0.024637265 -0.00029465297 -0.07942579 -0.037389856
000380 2c f1 05 3e 3c c3 43 39 36 e9 e0 bd ee 78 ed 3d
       0.13080281 0.0001866938 -0.109819815 0.11595331
000390 1c 0b d3 bd 61 d9 5f ba 2d 08 dd 3d f3 6b e2 3d
       -0.10304853 -0.0008539167 0.10792575 0.11055746
0003a0 70 44 88 3d ec 6b c6 bd a4 d5 ba 3d b7 45 e7 bd
       0.066536784 -0.09688553 0.0912278 -0.11292594
0003b0 41 a5 7d 3c 5b 54 cc 3c b1 2d 50 3c e2 e7 86 3b
       0.015481294 0.024942568 0.012706206 0.004116998
0003c0 ee 43 6c 3d 7a ad a2 3d d1 94 f2 bd 46 a2 b2 bd
       0.05768197 0.07943244 -0.11844791 -0.087223575
0003d0 cf b2 67 bc b8 e6 3a bd 00 05 d7 bc 26 a6 e7 bd
       -0.014141752 -0.045630187 -0.026247501 -0.11310987
0003e0 98 98 42 3d 81 80 eb bd d1 37 5b bd e1 ee 0d 3e
       0.047508806 -0.114991195 -0.053520028 0.13860656
0003f0 72 2d 92 bb 8c 3b 3b 3c 58 66 c8 3c af e3 f9 3c
       -0.004460984 0.011427771 0.024462864 0.030504076

encoder.0.bias f4 [128]
000000 59 bc e2 bd 6e 1e c1 3d b3 63 f1 bd 69 cc 29 be
       -0.11071081 0.09429632 -0.11786594 -0.16581883
000010 55 86 43 3c ef 59 c1 bd bd 5e 12 be b2 cd 42 bd
       0.011933883 -0.094409816 -0.14293952 -0.047559448
000020 8b d0 02 3c 3b 3c 5b 3d fd e8 a7 3c 98 28 f5 3c
       0.007984291 0.053524237 0.02049684 0.029926583
000030 e0 cd f3 bb 84 f2 ec 3d aa 7f 6c bd c9 b6 09 3e
       -0.0074403137 0.11569694 -0.057738937 0.13448633
000040 d5 73 17 be f3 99 14 be fc e3 9c bd e5 c0 be 3d
       -0.1479028 -0.14511852 -0.07660672 0.093141355
000050 02 b4 ab bd 5c c9 55 bd 0b ca e6 bd b1 1b 66 3b
       -0.08383943 -0.052193984 -0.112690054 0.003511172
000060 c9 1b 81 bc 62 19 1c 3e de bc 3f 3e 0e cf 7a bd
       -0.01576032 0.15244058 0.18724391 -0.06123262
000070 86 c4 fe 3d 1d 6f c7 bd 18 4f 3f 3e 29 94 98 bd
       0.124398276 -0.0973799 0.18682516 -0.07450134
000080 04 10 70 3b ab 9f 6c bd e1 09 fd bc d2 2c 80 bd
       0.003663064 -0.05776946 -0.0308885 -0.06258549
000090 08 93 75 3d fa 1b c7 3d 78 a1 ab 3d 02 a4 c4 3d
       0.059954673 0.09722133 0.08380407 0.096015945
0000a0 8a 68 f3 3d 61 b2 20 be fb 18 ed 3d cb 95 0e 3e
       0.118851736 -0.15693046 0.1157703 0.13924329
0000b0 75 7d 76 3d c0 31 2e 3e f5 33 0d be 72 6d a9 bb
       0.06017824 0.17011166 -0.13789351 -0.0051705176
0000c0 c7 21 2e 3e 24 1e 36 3e 98 b7 c4 bc a2 4f 84 bd
       0.17005073 0.17784935 -0.024013326 -0.06460501
0000d0 2c 7f 3e bd b4 42 b1 3d 3b b7 25 be 0e 91 ac bd
       -0.046508 0.08655301 -0.16183178 -0.084261045
0000e0 39 ee a8 3d 5b f7 35 be 76 00 b6 bd f4 59 df bd
       0.08248562 -0.1777014 -0.08886807 -0.10905829
0000f0 90 89 0f 3e 0f dc 41 3d 72 80 1a bd 11 64 05 3e
       0.1401732 0.047329005 -0.03772015 0.13026454
000100 83 13 64 bd aa fd 2d 3e 32 f7 03 be bc e0 1f be
       -0.05568267 0.16991296 -0.12887266 -0.15613073
000110 09 84 1e 3e 7f 6c 94 3d 4f df c9 3a fe 48 0c 3e
       0.15480055 0.072472565 0.0015401634 0.1369972
000120 01 88 15 bd f5 0a 90 3c fe 1d 6c bd 87 08 13 be
       -0.036506657 0.01758335 -0.05764579 -0.14358722
000130 7e 03 2a bd d8 4c 00 be 24 7a e1 3d 0a 12 d2 bb
       -0.041507237 -0.12529314 0.110096246 -0.006410842
000140 f0 66 ff bd e3 e4 97 3c f8 b7 b1 bd 22 dc 0b 3e
       -0.12470806 0.018541759 -0.086776674 0.13658193
000150 bb 44 bd bd 1a 62 ea 3d 13 a7 19 3e 8c 4b 10 be
       -0.09241625 0.11444493 0.1500514 -0.14091319
000160 42 00 4e bd fc d0 f7 bd e5 f6 3b 3e a1 7e a7 3d
       -0.050293215 -0.121004075 0.18355902 0.081784494
000170 1c 08 0b 3e c2 a6 14 3e bb cc 9f bd 4e 07 db 3d
       0.13577312 0.14516738 -0.07802721 0.10694753
000180 1c fb ee bd 26 e6 3e bd bd 47 aa bc d3 d0 cd bc
       -0.11668989 -0.046606205 -0.02078616 -0.02512399
000190 e7 04 ee bd 1a 25 b2 bd 66 00 2c 3e 71 f1 b7 bc
       -0.11622029 -0.08698483 0.16797027 -0.022453995
0001a0 b4 20 16 3d 14 2e d4 bd aa e6 06 3e ce 84 0e 3e
       0.036652282 -0.10360351 0.13173929 0.13917848
0001b0 9d c2 bc 3d 42 c7 13 3e f8 60 41 bc c2 d4 80 bd
       0.09216807 0.1443148 -0.011802904 -0.0629058
0001c0 69 cb 3b 3e 2d 6e 35 bd ab cc 9b bc dd ac c6 3c
       0.18339314 -0.044294525 -0.019018492 0.02425235
0001d0 d5 15 d5 3d b5 cf c9 bd 2a 38 a9 bc 88 3c 13 3c
       0.10404555 -0.0985407 -0.020656664 0.0089866
0001e0 78 ca b5 3d b4 5a e5 3d 1f 48 df bd b7 83 3b 3e
       0.088765085 0.11198941 -0.10902428 0.18311964
0001f0 64 09 8b bc 14 1b 3f 3e 8f e1 ee bd 69 a2 cb 3d
       -0.016972251 0.18662673 -0.11664116 0.09943087

encoder.2.weight f4 [128, 128]
000000 06 e3 de bd 20 0d b0 3d 3c cd 15 bd 81 12 8d 3d
       -0.10883145 0.085962534 -0.03657268 0.06888295
000010 96 54 87 3d 6b 81 41 3d 32 5a 03 be 8c 75 80 bd
       0.0660793 0.047242563 -0.12827376 -0.0627242
000020 da 6d 50 3c 6e a2 91 3a 16 cc fb 3d cf 44 50 3a
       0.012721503 0.001111103 0.12294786 0.00079448236
000030 91 a1 be 3c 2a 6b 6c 3d 24 62 9e 3d 40 8e 85 3d
       0.0232704 0.057719387 0.077335626 0.06521273
000040 f2 7a eb 3c b6 66 a1 3d ff 31 46 3c 52 86 9b 3c
       0.028745148 0.07880919 0.012096881 0.018984947
000050 af fe c8 3c cb 5b 2f bc 59 50 f6 3c 19 b5 80 3d
       0.024535505 -0.0107030375 0.03006761 0.06284542
000060 33 c0 15 bd 62 99 14 3e f0 f6 6f 3a 9a 41 3a bd
       -0.03656025 0.14511636 0.0009153923 -0.04547272
000070 f5 ac 21 3d 3c 92 86 bb e5 9b 7d 3d ff 77 9d bd
       0.039471585 -0.004106788 0.06191625 -0.07688903
000080 e7 8f 72 bd 49 59 d0 3c 5f 44 0f 3d 79 24 c2 bd
       -0.059219267 0.0254332 0.034977313 -0.09479613
000090 61 dc 1b 3d da ba 2e 3e 2c 43 7a 3d db 93 71 bd
       0.038051967 0.17063466 0.061099216 -0.058978897
0000a0 4a 5d db 3c d4 68 02 be 79 49 fb 3b 79 ea f5 bc
       0.026777882 -0.12735301 0.0076686707 -0.030019032
0000b0 80 ff 0f 3d 57 f2 d1 3d 35 a0 af bb bf 16 53 bd
       0.035155773 0.10251301 -0.0053596743 -0.051535364
0000c0 cc 2f 5c bb 1e 67 c0 3d bc e0 b5 bc 35 bc b3 3c
       -0.0033597825 0.09394668 -0.022201888 0.02194033
0000d0 e1 92 97 bc 48 d2 e5 ba 83 db f4 3c 4f 89 3c bc
       -0.018502655 -0.0017533982 0.029889828 -0.011507346
0000e0 c5 5e c9 3d 51 53 2e 3d e5 7c e1 bb 8b bd 20 3d
       0.09832529 0.042559925 -0.0068813437 0.039243262
0000f0 20 4c de bc e4 9c b0 bd ec 6a 9e 3c 92 cf 8e 3d
       -0.027135909 -0.086236745 0.019338094 0.06973185
000100 5a 96 94 bc e4 0e 5c bd fc 6c 92 bd 0d 46 81 bd
       -0.0181381 -0.05372514 -0.07149693 -0.06312189
000110 71 db 21 3d 04 18 ce bc 0a 28 83 ba 25 2c be 3d
       0.039515916 -0.025157936 -0.0010006439 0.09285764
000120 3b c0 27 bd e9 7e a5 3c dc 1f 76 bd fa 79 c2 bd
       -0.04095481 0.020202117 -0.060088977 -0.094959214
000130 b5 8d e0 bb 08 4a aa 3c eb 2d 03 3c 4f a9 67 bd
       -0.0068528303 0.020787254 0.008006553 -0.05655795
000140 01 b6 b4 bd 08 4c 24 bd 6e 81 30 3c cb 6f 94 3d
       -0.08823777 -0.04011157 0.010773046 0.07247885
000150 a8 4f 10 3d 3a 7c 62 bd e7 b5 9e 3d 23 a8 f0 3b
       0.035232216 -0.055294253 0.07749539 0.007344262
000160 af c0 84 3d c4 9b 14 3c eb b6 d6 3d 7b 35 43 bd
       0.06482064 0.009070341 0.104841076 -0.047658425
000170 42 4d 06 3e 17 09 03 3e a7 1e dd bc 62 15 9a 3d
       0.13115409 0.12796436 -0.026992155 0.0752361
000180 c4 fb 8a bd f7 19 e8 3b 8b 2f 46 3b 7b 32 94 bc
       -0.06786302 0.0070831734 0.003024074 -0.018090477
000190 3d 16 a3 3c b8 cb f4 3c 33 3b b3 39 aa af 93 3d
       0.019908065 0.029882297 0.00034185647 0.0721124
0001a0 4b 8c ab 3c 2f d4 63 3d 24 46 f4 3b 96 9a fd 3c
       0.02094092 0.055622276 0.0074546505 0.030957501
0001b0 ba 84 88 bd b1 67 cc 3c f9 d2 b6 bd a6 68 5b 3d
       -0.066659406 0.024951788 -0.089269586 0.053566597
0001c0 cd 2b d9 3d 3f ba cb bc 16 27 68 3d cf 63 64 bd
       0.106040575 -0.024869082 0.0566779 -0.055759247
0001d0 aa da 07 3d d4 56 65 bd cb d7 4c 3d 8d 2a 50 3c
       0.03316752 -0.05599101 0.050010484 0.012705457
0001e0 f3 a8 56 bd d1 01 df 3d 53 c1 d7 3b a2 70 07 3d
       -0.052407216 0.10889018 0.0065843253 0.0330664
0001f0 1c b7 0d bd c1 df ae 3d 0f 30 7a 3c 3c e6 06 3d
       -0.034598455 0.085387714 0.015270247 0.032934412
000200 e1 f9 9a 3b cf 49 71 3c ba 19 5b bd e2 63 87 bd
       0.004729495 0.01472707 -0.05349133 -0.06610848
000210 41 40 ed 3c be fa 0e bd 3f 19 7d bd 70 ef 92 bd
       0.028961303 -0.034907095 -0.061791655 -0.07174575
000220 b3 75 83 3d 4d 97 77 3d 22 75 c8 3d 15 62 4e 3d
       0.06418934 0.060447026 0.09787966 0.050386507
000230 ea 01 a1 3c b8 24 e4 bc 6f 8c 70 bb d5 aa e9 3c
       0.019654233 -0.02784954 -0.0036704799 0.028523842
000240 94 7e a1 bc 9c f0 95 bc 8c 89 a3 bc 98 ab e3 3d
       -0.019713677 -0.018303208 -0.019963048 0.11116713
000250 47 6e 89 3d 72 f9 30 3c 25 1b 58 3d 27 29 97 3d
       0.06710487 0.01080166 0.052760262 0.07380896
000260 2c a0 aa bd 72 81 db 3d 14 e1 d7 3d 86 7a 85 3b
       -0.083313316 0.10718049 0.10540977 0.004073444
000270 42 81 a2 3d 3a f7 ea 39 ff 7b 2f bb 0d e8 b3 bd
       0.0793481 0.00044816156 -0.0026776788 -0.087844945
000280 80 05 a7 3c 06 54 ac bd 3c 82 32 bd c0 3a 8c bc
       0.020388365 -0.08414464 -0.043581232 -0.017117858
000290 27 7a 6a 3c 6d 0d e2 3c 42 89 81 bd da 3c 6f 3c
       0.01431135 0.027594293 -0.06325008 0.0146019105
0002a0 b3 c3 47 3d f5 10 65 bd cf 31 9b 3d 3e 51 4e 3d
       0.048770618 -0.055924375 0.075778596 0.050370447
0002b0 ae 85 11 3e d4 e0 04 bd 43 1e a9 bd 1e 3c 43 bd
       0.14211151 -0.032440975 -0.08257725 -0.047664754
0002c0 53 3d df 3c 53 54 c0 3d 00 b1 69 3c f5 94 db bd
       0.027250921 0.093910836 0.0142633915 -0.10721771
0002d0 aa 42 d9 bc 36 06 99 3c f8 71 1b 3d ad 3e 3c bd
       -0.026521046 0.01867972 0.037950486 -0.04595821
0002e0 3a d8 a0 3c 05 72 70 bd a4 c9 92 3c ae f8 eb bd
       0.019634355 -0.058702487 0.017918415 -0.11522041
0002f0 ac 25 80 3d df 31 7a bc 6a 02 29 bc 38 c1 82 bd
       0.06257185 -0.015270679 -0.010315517 -0.0638451
000300 64 ae ad 3d 88 ff ca 3c 63 87 04 3d 63 3c 26 3d
       0.08480528 0.02478005 0.032355677 0.040584933
000310 90 9a fd 3c 3b 66 d4 3c 2c c4 3d 3d e1 21 ac 3d
       0.03095749 0.025927654 0.046329662 0.084048994
000320 0d 0e f2 3b bb ad b9 3d a9 d3 8c 3d 32 c5 be bd
       0.007386929 0.090663396 0.068763085 -0.09314956
000330 44 94 2f 3d f0 0a ca bc 85 35 ec 3c 38 82 06 bd
       0.042866006 -0.024663419 0.028834114 -0.03283903
000340 52 00 d1 bd 73 d2 4a bc 12 25 8a bd 75 2a cc 3d
       -0.10205139 -0.012379277 -0.06745352 0.099690355
000350 ef 6e ea 3c df 0b 59 3c a3 eb 1d 3d 5f 14 e6 3c
       0.02861735 0.013247459 0.0385548 0.028085886
000360 20 d5 37 bc 51 69 d8 bd 99 2c 11 3e 70 81 8d bd
       -0.011220247 -0.105669625 0.14177169 -0.06909454
000370 e2 7c c1 3d d5 26 12 bd d6 f8 90 bd bf 97 cb 3c
       0.09447648 -0.035681564 -0.07078712 0.024852632
000380 48 fa 65 bd 52 8e 9d bc 5d 61 b5 bb 26 b1 4a 3c
       -0.05614689 -0.019232903 -0.0055352882 0.012371337
000390 da 5d 73 bd 1f 63 7e 3c 9c f2 ed bc f1 45 56 3d
       -0.059415676 0.015526562 -0.02904635 0.052312795
0003a0 e7 b3 b5 3d 50 41 6d bc 3a 0a 9c 3d e5 ef 1c bd
       0.08872204 -0.014480904 0.07619138 -0.03831472
0003b0 6f ca d1 3d 0e c8 70 3d 3f 0a 6c bd 60 77 3d bd
       0.10243689 0.058784537 -0.05762696 -0.046256423
0003c0 58 80 67 bc 55 e7 f4 3c 5f ce b5 3d 8c 9d e3 bc
       -0.014129721 0.029895464 0.08877253 -0.027785085
0003d0 b1 d5 22 bd 55 1e d4 bd f8 1e bb 3b b2 e9 83 3d
       -0.039754573 -0.10357348 0.005710479 0.06441058
0003e0 b1 c8 97 3c c4 d1 0f 3d 10 45 9b 3c 86 75 0b 3d
       0.018528314 0.035112157 0.01895383 0.034047626
0003f0 64 ba cd 3d 6c 15 0d bd 22 26 ea bc e4 5e 12 bd
       0.10045317 -0.034444258 -0.028582636 -0.035735026

encoder.2.bias f4 [128]
000000 79 0a 0b 3d 9f 51 07 3c 5f bb 05 3d 37 e4 81 3d
       0.033945534 0.008259206 0.032649394 0.06342357
000010 6a c3 6b bc 13 2f 35 bd 46 ea 8c 3a 51 db 5e 3d
       -0.014389852 -0.044234347 0.0010750971 0.054408375
000020 04 3e 7c 3d 30 b9 3c bd 70 d5 9a 3d b4 78 82 3d
       0.06158258 -0.046075046 0.07560241 0.063706785
000030 28 34 78 bd 89 ee b8 bb 2a 98 34 3e c5 cd 9d 3d
       -0.060596615 -0.00564367 0.17636171 0.07705263
000040 f4 83 24 bd aa 4c 0f 3e 46 b0 10 3d 24 2c 26 3d
       -0.040164903 0.13994089 0.035324357 0.04056944
000050 3f d5 a4 bc 0f 97 80 3d 0c ee 9a 3b 6c 9d e3 bc
       -0.020121215 0.06278812 0.0047280844 -0.027785026
000060 55 07 9e bd b3 3d a8 3d 73 3b c9 bd 2d 4e 70 bd
       -0.07716242 0.08214893 -0.09825792 -0.058668304
000070 4d 19 b7 3c c9 9f 8d 3d 7e ad e3 3c 49 dc c5 3c
       0.022350932 0.06915242 0.027792688 0.024152892
000080 04 5d a8 3d 74 d5 d6 3d 65 c3 b0 bd bb bc b3 3d
       0.08220866 0.10489932 -0.086310185 0.08776232
000090 e1 8a 65 3d 3e 7b 5e 3d 3e 3a f9 bb d9 0d 3c 3d
       0.05604065 0.05431675 -0.00760582 0.045911644
0000a0 ab fd a0 3d 4b be 42 bc 2b b5 c6 3b 6e 3d c1 3d
       0.07860883 -0.01188619 0.0060640774 0.09435545
0000b0 f4 b2 a3 bd 70 7e 75 bd 44 b1 9a bd 3b 56 01 3d
       -0.07993117 -0.059935033 -0.07553342 0.031576376
0000c0 9e c5 00 3e e7 b0 15 3e 14 0d 1c 3c 8c f9 55 bd
       0.12575385 0.14618264 0.009524602 -0.05223994
0000d0 cd 29 a1 3b 15 d0 81 3d 31 48 65 3d c3 f4 ec 3d
       0.004918313 0.063385166 0.05597705 0.11570122
0000e0 b2 f7 90 bc 06 62 8f bd e1 38 1c bd 61 4e e2 3d
       -0.017696235 -0.07001118 -0.03814018 0.11050106
0000f0 2f a1 c2 bd 03 78 95 bd a0 08 7b bc d2 82 d4 3d
       -0.095033996 -0.07298281 -0.015321881 0.103765145
000100 8f aa de 3d 27 9b 9a bc 89 71 20 bd f0 16 13 bc
       0.10872375 -0.01887281 -0.039170776 -0.008977637
000110 27 6e 04 bd 82 75 f8 3c 32 73 a7 bd d7 04 0c bc
       -0.032331612 0.03032947 -0.08176269 -0.008546076
000120 f6 82 36 3d 50 4e 0e 3e ab ad b3 39 dc 18 ae bd
       0.044558488 0.13897061 0.00034270933 -0.08500835
000130 0b 12 f3 3d b2 40 f0 bb c8 9d 0f bd c6 70 e2 bc
       0.11868676 -0.007331931 -0.03506258 -0.027641665
000140 54 7e 83 3d c0 2e 10 bc 5e d4 77 bd 5a e1 de bd
       0.064205796 -0.008800209 -0.060505264 -0.10882826
000150 ef d5 6a 3d 62 46 ef bd 0d a1 91 3d c6 f2 89 3d
       0.05733293 -0.11683346 0.07110796 0.067357585
000160 f8 31 b6 3d ad da b7 bd 3a 57 85 bd 53 09 28 bd
       0.088962495 -0.08977256 -0.06510778 -0.041024517
000170 b9 99 b5 3c 1b a5 c6 3d 70 ac 0d bd 0d 4b 92 bd
       0.022168027 0.0969946 -0.034588277 -0.07143221
000180 da 94 a8 bd b4 fc 91 bd e3 92 8a 3d d5 3f 22 bd
       -0.08231516 -0.071282774 0.06766298 -0.039611656
000190 7d 6b 07 3e 90 12 46 3d 79 43 8f 3d 2a 45 a2 bc
       0.13224597 0.048357546 0.06995291 -0.01980837
0001a0 70 bf 4c 3d 4e df 04 3e 6f 5b e1 3d 28 cc dc bc
       0.049987257 0.12975809 0.11003768 -0.026952818
0001b0 17 e0 f9 3d 13 c0 b2 3d d7 4a 91 3d 64 7e 5f 3d
       0.12200945 0.087280415 0.07094353 0.054563895
0001c0 f4 32 c3 bc e6 52 86 bc 43 47 bb 3d df 2b 24 bd
       -0.023828007 -0.01639695 0.091444515 -0.0400809
0001d0 42 bf 01 3d 94 43 8f 3a e8 6b 51 3d 92 9a 80 bb
       0.03167654 0.0010930174 0.051128298 -0.003924676
0001e0 33 7b 8c bc 9a aa d2 3d f0 74 87 bc 83 87 08 3e
       -0.01714859 0.10286446 -0.016535252 0.13332944
0001f0 22 48 9a bc 46 91 ab 3d 22 4e 31 bd 97 6f 81 3d
       -0.018833224 0.08377318 -0.043287404 0.06320112

mu.weight f4 [20, 128]
000000 c6 f4 e5 bc 7f 7f d2 bc ad 4f 77 bd 67 df a9 bd
       -0.028070819 -0.02569556 -0.06037872 -0.08294564
000010 2b dd 1d 3d b8 5a 84 3d 48 fa ab 3c 15 73 de bc
       0.038541 0.06462616 0.020993367 -0.027154485
000020 dc e0 b4 bd 21 c4 15 3d 06 a6 7f bc a6 d7 24 bd
       -0.08831951 0.036563996 -0.015603548 -0.04024472
000030 73 4d d1 3d 13 32 97 bd de ee 7d bd 66 d0 67 3c
       0.102198504 -0.07382598 -0.06199538 0.014148807
000040 7c 31 46 3d 16 af bc 3d 71 1a 37 bd b9 b6 dc 3c
       0.048387036 0.092130825 -0.04470295 0.026942598
000050 39 28 c3 3d 22 e9 be 3d 2b 52 e2 3c a7 c3 40 3d
       0.09529156 0.0932181 0.027627071 0.04706159
000060 04 e8 48 3b 33 05 a7 3d a0 6d f7 bc f5 61 e0 bc
       0.003065587 0.081552885 -0.03020364 -0.02739046
000070 a8 15 e7 bc e1 d3 2f bd 29 73 20 3d 20 30 53 3d
       -0.028208569 -0.042926673 0.039172325 0.051559567
000080 1b fe 64 3d 4c 79 21 3d 78 b9 ca 3b fe 4e 66 3d
       0.055906396 0.03942232 0.0061866604 0.056227677
000090 12 71 8c 3d 71 29 cd bc 9f 8a fa bc ba 0c 55 bd
       0.06857504 -0.025044175 -0.030583678 -0.05201409
0000a0 e5 16 82 bd 53 ec 3a bc c6 4f 9e 3b 22 e8 a5 3d
       -0.06352023 -0.011408883 0.004831287 0.081009164
0000b0 2a bd 8d bd e7 16 82 bd f8 ba d7 bc 0f c9 4f 3d
       -0.06920846 -0.063520245 -0.02633427 0.050728854
0000c0 a8 b4 7f bd ee 90 70 bd 4d fa b6 bc 40 ab 8b bd
       -0.062428147 -0.058731966 -0.02233615 -0.06819773
0000d0 11 c3 2f 3d 5e 8c bf 3d fa 12 71 bc 15 69 91 3c
       0.04291064 0.09352945 -0.014713997 0.017750302
0000e0 74 f0 21 3d 75 46 63 bd 63 74 b6 bc 60 da 08 3d
       0.039535955 -0.055487115 -0.022272294 0.033411384
0000f0 d5 cc 60 3c 48 20 10 bd 3d af 68 3c 6d b5 b3 3d
       0.013720711 -0.035187036 0.014201936 0.087748386
000100 04 1e 8f bc 6c 9e 37 bd 7c 77 98 bd 04 12 48 ba
       -0.017470367 -0.044828817 -0.07444665 -0.0007632079
000110 95 49 75 3c 2f d8 9a 3d 46 3c 09 bd 7c 3d 7f bd
       0.014971157 0.07560765 -0.033504747 -0.062314495
000120 1c 33 8b 3d e6 c7 1a bd 6e 6d 52 bb 2a 80 e7 3c
       0.06796858 -0.037788294 -0.0032108682 0.028259356
000130 39 34 55 3d ee e0 a1 3c 9a 0f a6 3d 38 b4 2f bb
       0.052051757 0.019760575 0.081084445 -0.00268103
000140 ea fe 8c bd af a1 0a bd 2f ec c7 bc 01 30 b2 3d
       -0.068845585 -0.0338456 -0.024404613 0.08700562
000150 7c a3 51 3d c5 a2 21 3b 1f c8 98 bd 29 18 72 3b
       0.0511813 0.0024663669 -0.07460045 0.003694067
000160 9c de 26 bd a3 d8 8d bc 86 c0 29 3d 2c fe 69 3b
       -0.04073964 -0.017315214 0.04144337 0.0035704477
000170 bb 98 d4 3b 54 45 4a bd 15 60 5d 3d 80 c7 a4 bd
       0.0064879335 -0.049382523 0.05404671 -0.08045864
000180 46 7f f1 3c 60 63 18 bd b1 40 ff bc 6f 6a 38 bd
       0.029479634 -0.037204146 -0.031158777 -0.045023378
000190 af 8b aa 3d 09 2a 6b bd 75 c8 89 3d 4c ba 09 bb
       0.08327424 -0.057413135 0.06727687 -0.0021015583
0001a0 1b 2b 1f bb 7a 2d 89 bd f2 d8 3c bb 30 4d 21 3d
       -0.0024287167 -0.06698127 -0.0028815833 0.039380252
0001b0 78 ee b3 bd fd 97 83 bd 30 70 34 3c 56 af 7e 3d
       -0.08785719 -0.06425474 0.011013076 0.062178932
0001c0 14 35 2b bd 0e 09 9e 3d 5c 20 2c bd a2 cb 82 3d
       -0.041798666 0.07716571 -0.042023048 0.06386496
0001d0 4c ef 41 bd 37 41 3b 3d f3 b0 63 3d 8c 65 1b bd
       -0.047347352 0.04571649 0.055588674 -0.03793864
0001e0 0d 84 32 3d d5 24 48 bd e0 ef 83 3d 96 0c 9c 3d
       0.043582965 -0.04886325 0.06442237 0.07619588
0001f0 a8 fa 3f 3c fe 98 0b 3d dd 91 0f bd 91 75 8a bd
       0.011717476 0.03408145 -0.035051215 -0.06760705
000200 cf 17 78 bd 0f f3 af bd 8e e7 5f bd c4 99 ca 3d
       -0.06056958 -0.085912816 -0.054664187 0.0989261
000210 69 72 aa 3d 64 5a 93 3d 83 5e 32 3d 6a 46 96 bd
       0.08322603 0.07194975 0.043547165 -0.07337649
000220 41 94 9a 3d 33 01 41 3d 73 43 c9 3c 2d 34 76 bd
       0.075478084 0.047120284 0.024568295 -0.060108352
000230 51 8a ec 3c c6 6a bb bc 46 6f a2 bc 45 51 38 3c
       0.028874548 -0.022878062 -0.01982845 0.011249845
000240 9c 90 5a 3b 68 7f 97 3d 9d e5 81 bd 41 fd 81 bd
       0.0033350354 0.07397348 -0.063426234 -0.063471325
000250 f6 dc 8f bd 55 68 70 bd 45 43 1a bd 18 6a 8c bd
       -0.07024567 -0.05869325 -0.03766181 -0.06856173
000260 0a f0 28 3c a0 fd 10 3d d5 70 01 3d 95 57 82 3d
       0.010311136 0.035398126 0.031601746 0.06364361
000270 a7 3b 51 3d fb ed 1c 3c 02 a4 96 bd 4d e2 9b bd
       0.05108228 0.009578223 -0.07355501 -0.07611523
000280 ec 79 74 bd 54 cc bb 3d 2b 89 22 bd c0 78 74 bc
       -0.059686586 0.09169832 -0.039681595 -0.014921367
000290 bf b0 3a 3b 22 bd 4b bc 70 78 ab bd 5f a4 c4 bb
       0.0028486697 -0.0124352295 -0.08372581 -0.00600104
0002a0 ef 82 54 3c ff 88 b4 bc 8b 9c 39 bd b4 54 5f bd
       0.01297067 -0.022037981 -0.045315307 -0.05452414
0002b0 07 e4 a6 3d 32 46 b0 3d 17 b0 8e 3d 99 5a 40 bc
       0.081489615 0.08607139 0.0696718 -0.01174035
0002c0 fa 62 54 3d 4a 94 b6 3d 1b e2 04 3d ba cc bb 3d
       0.051852204 0.08915003 0.032442193 0.09169908
0002d0 94 07 83 bd 3d 27 4b 3b de 34 ea bc 3f 1b b7 3d
       -0.0639793 0.003099873 -0.028589662 0.08940744
0002e0 69 8f a5 bd 9c d0 04 3d 74 0c 68 3d 56 dd e5 ba
       -0.08083994 0.032425508 0.0566525 -0.0017537277
0002f0 98 cf bf bb 9e be b9 bd 50 79 c0 bc 4a f2 33 bd
       -0.0058536045 -0.090695605 -0.023495346 -0.043932237
000300 05 01 69 bd ed 8d 50 3d 3a 50 df 3d fa 9f c3 bc
       -0.056885738 0.0509166 0.10903974 -0.023879994
000310 4b be 32 bd 4a c5 77 3d 55 b9 a0 bd 6b 42 a0 3d
       -0.04363851 0.060490884 -0.07847849 0.07825168
000320 bc 64 0d 3d 31 8d ae bc 8d 78 82 3c eb 07 7e 3b
       0.034519896 -0.02130756 0.015926624 0.0038762044
000330 c6 21 b9 3d 1e 14 1f bd 41 db 84 3c d5 f7 bd 3d
       0.09039645 -0.038837545 0.01621783 0.09275786
000340 85 06 61 bd f9 bc 9d 3d aa 4f 0a bd 84 5c 98 3d
       -0.054937858 0.07702059 -0.03376738 0.07439521
000350 74 74 c0 3c 31 fa a0 3d d8 09 87 3d 9f ec c3 3d
       0.02349303 0.0786022 0.065936744 0.09566616
000360 e5 08 93 3d 52 94 a8 3b 41 3c 4b bd 1a 5e 48 3c
       0.07179431 0.0051446343 -0.04961801 0.012229467
000370 7e bf 0a 3d 8c ff 02 bd e8 88 f6 3c 02 bc 68 3d
       0.033874027 -0.03198199 0.030094579 0.056819923
000380 d1 b4 75 3d dd 99 97 3d d6 5f 8c bd 44 55 e1 3c
       0.059986893 0.07402394 -0.06854217 0.027506478
000390 cd cc f9 bb 8f e6 99 bb ec ef ab 3d a7 8f d2 bd
       -0.007623291 -0.004696674 0.08395371 -0.10281306
0003a0 2b da 62 bd aa 57 03 3d 64 9b b9 bb e6 67 69 bd
       -0.055383842 0.032066025 -0.005664276 -0.05698385
0003b0 99 e5 1c bd 8e 63 80 bd c9 e4 1f 3c 21 4e 72 bd
       -0.0383049 -0.062689885 0.0097591365 -0.05915654
0003c0 03 f7 3d bd a4 be da ba 1a 26 8d 3c a6 c9 1c 3b
       -0.046378147 -0.0016688895 0.017230082 0.0023923903
0003d0 07 89 91 bb 25 4b aa bd 76 1c 80 3d 80 63 ab bd
       -0.0044413838 -0.08315114 0.062554285 -0.083685875
0003e0 68 24 8a bd 30 38 d5 bd 2b 72 3d bd d1 d9 13 3d
       -0.06745225 -0.104111075 -0.046251457 0.036096398
0003f0 55 65 00 3d 39 1f 35 3d 2a 6d 86 bd 81 32 3a bd
       0.031346638 0.04421923 -0.0656379 -0.04545832

mu.bias f4 [20]
000000 b0 07 8a bd c1 6b 9c bd 38 24 7b bc 59 63 07 3c
       -0.067397475 -0.0763774 -0.015328459 0.008263432
000010 da c8 10 bd 64 8d 55 bc f0 1c f6 3b 17 44 ab bd
       -0.035347797 -0.013034198 0.007510774 -0.083625965
000020 bc 49 65 3d 88 0a 84 3d 4e cb 23 bc de 51 18 bd
       0.05597852 0.06447321 -0.009997202 -0.03718745
000030 e2 8d 72 bc f9 f2 47 bd 05 6f fb 3c 75 6a b0 3c
       -0.014804335 -0.0488157 0.030692587 0.021535138
000040 ca 41 3e 3c 53 93 da bb 7e fd 6b bd 70 f5 ca 3d
       0.011612365 -0.0066703944 -0.057614796 0.09910095

logvar.weight f4 [20, 128]
000000 e2 69 52 3d 30 ad 42 bd 40 6d 42 3d 62 e1 48 bd
       0.05137051 -0.047528446 0.04746747 -0.049043067
000010 8e 04 11 3d 22 da fc 3b c5 87 8d bd d7 88 ae bd
       0.035404734 0.007716433 -0.069106616 -0.08522194
000020 b3 5c 26 3d 72 b3 84 3d 9c de c4 bd f5 a3 31 bd
       0.04061575 0.06479539 -0.09612772 -0.043369252
000030 1f f5 71 bd 31 e5 81 3d f1 e2 0d 3d 97 bb 03 bd
       -0.059071656 0.06342543 0.034640256 -0.03216132
000040 2e 57 9b bb de 1b 8e bd e1 02 38 3d 1c f6 b3 bd
       -0.0047406172 -0.06938909 0.04492462 -0.08787176
000050 6c 69 7b 3d 52 07 82 3c 18 7d 97 bd 6b 60 60 3b
       0.061379835 0.015872631 -0.073969066 0.0034237157
000060 5d e8 47 3d 86 af 67 3c 66 8a 2d 3d 97 5c 41 bd
       0.048805583 0.014140969 0.042368315 -0.04720744
000070 ac 11 b9 bd 72 59 5c bc 50 bb a0 3a 59 06 83 bd
       -0.09036574 -0.01344906 0.0012262855 -0.06397695
000080 6c c6 a8 bd 41 9f a6 bc 6e c4 96 3d e1 bd 7e bc
       -0.08240971 -0.02033961 0.07361685 -0.0155482
000090 e4 63 73 3d e2 a3 17 3d 65 e5 b6 3d 33 92 06 3d
       0.059421435 0.037021525 0.08930472 0.03285427
0000a0 69 d5 8e 3d 4f 57 2c 3c d6 09 46 bd 6c a2 c1 3c
       0.069742985 0.010518863 -0.048349224 0.02363702
0000b0 e2 a1 31 3d fe 1c 05 bc ab 64 88 3d 26 ea c4 bc
       0.043367274 -0.008124588 0.06659826 -0.024037432
0000c0 e0 8f 37 3d 43 33 0a bd d6 d2 9c bc 40 56 11 3d
       0.044814944 -0.033740293 -0.019143503 0.035482645
0000d0 0d a2 8c 3d e1 15 8b bd 13 20 a8 bd 76 d1 c7 bd
       0.06866846 -0.067912824 -0.08209243 -0.097567484
0000e0 9b d5 09 bd 89 74 95 3d 71 95 1d bd a7 ea 56 3d
       -0.033650976 0.07297618 -0.038472597 0.052469876
0000f0 8f 01 07 3d c3 86 4f 3d c6 f6 bb 3d d9 a8 45 3d
       0.03296047 0.05066563 0.09177928 0.04825673
000100 05 34 e5 3b 78 44 28 3d 6e 42 a3 bb ad e6 cc 3b
       0.0069947266 0.041080922 -0.0049822843 0.0062530846
000110 0c 35 39 3c aa 32 d8 3c c7 96 eb 3a 61 a8 6c bb
       0.011304151 0.026391346 0.0017974012 -0.0036111104
000120 7a 12 f6 bb 72 42 17 bd 27 37 f2 3c 6b 98 a7 3d
       -0.007509527 -0.0369286 0.029567314 0.08183368
000130 e5 a8 15 bd e9 e0 a1 bd 42 62 98 bd 67 5a 13 3b
       -0.036538024 -0.07904226 -0.07440616 0.0022484304
000140 f9 13 6a 3d d7 d9 5a 3d 1e e9 3d bd 63 74 92 3c
       0.057147954 0.053430405 -0.046364896 0.017877763
000150 c7 fe 04 bd a9 17 a3 3c dc 65 8f bb d3 0e e1 3c
       -0.032469537 0.019908743 -0.0043761563 0.027472889
000160 24 e9 90 3d 5c 6d 86 bd 7c 33 ab 3d 4e 37 4b bd
       0.07075718 -0.065638274 0.08359429 -0.04961329
000170 54 d2 ab bd 73 7c 93 3d 87 e6 73 3d ab f5 5d bd
       -0.08389726 0.07201471 0.05954602 -0.054189365
000180 1c bc 9e 3d c3 27 af 3d 1b 7b bf 3d 21 61 a9 bc
       0.07750723 0.08552506 0.093496524 -0.020676197
000190 67 ef 99 bd 89 ac 8d bd 5f a5 69 3d 18 7e 7b bb
       -0.075163655 -0.06917674 0.057042476 -0.0038374718
0001a0 0f 6b 5e 3d 37 48 8b 3d a9 71 75 bd 12 a8 74 3d
       0.054301318 0.06800883 -0.059922848 0.059730597
0001b0 04 b8 5b 3d 55 6c aa 3d a1 41 2a 3d 9d cb 15 3d
       0.053642288 0.08321444 0.041566495 0.036571134
0001c0 70 1f 4d bc 14 bb 27 bd 24 fc 79 bd 92 24 75 3d
       -0.012519702 -0.040949896 -0.061031476 0.05984933
0001d0 7b 87 42 3d 05 1d 9e bd 1b c8 d9 bc 7c 56 7c 3d
       0.047492485 -0.07720379 -0.026584676 0.061605915
0001e0 42 f6 ab bd 88 8e 26 bd 9b f1 cb 3c 0f 4f 88 bd
       -0.08396579 -0.040663272 0.02489548 -0.06655704
0001f0 f5 27 6d bd 36 3e 5a bc dd 90 79 3d 31 3d 66 3d
       -0.057899434 -0.013320496 0.060929168 0.0562107
000200 6b 14 18 bd ba 0d c2 3c 94 d7 ab 3d 15 a7 1f bd
       -0.037128847 0.023688186 0.08390728 -0.0389777
000210 e0 c1 46 bd 36 f8 1e bd 20 ad 06 bd 7d 5a 84 3d
       -0.048524737 -0.03881093 -0.03287995 0.06462572
000220 fa e2 b3 bc 07 e7 00 3d 88 56 98 bd ca bb c2 bd
       -0.021958817 0.031470325 -0.074383795 -0.09508474
000230 2a 37 38 3d 02 f0 35 bc 6a 16 3a 3d 67 4c f5 bc
       0.044974484 -0.011104586 0.045431532 -0.029943658
000240 00 88 bb 3d 5c a2 4e 3d 91 66 f2 bc 7c 8a 60 bd
       0.09156799 0.050447807 -0.029589923 -0.05481957
000250 94 1c 83 3d 46 af 09 bd b5 c1 81 bd c7 7e 9a bd
       0.06401935 -0.03361442 -0.06335775 -0.07543712
000260 09 4e 7d 3d 57 22 b8 3c ea 1e 55 bd c3 36 4b 3d
       0.061842 0.022477312 -0.052031435 0.04961277
000270 33 9a 50 bc 0a 2c 8f 3c d6 37 6b bd e1 ae 6b bd
       -0.012732076 0.017477054 -0.057426296 -0.057539824
000280 10 5e 3a bd 6a 0f d9 bd 00 67 a1 3d 41 d9 8b bc
       -0.04549986 -0.10598643 0.07880974 -0.017071368
000290 86 73 a4 3d 89 0e 73 bd 40 ae 8c 3d ea 2f 8c bd
       0.08029847 -0.059340034 0.06869173 -0.068450764
0002a0 80 7b 53 bd 34 bf 9f 3c de 4e 00 bd 79 aa 98 3c
       -0.05163145 0.019500352 -0.031325214 0.018635975
0002b0 67 0a 06 bb 16 be 59 bd 4b 42 0c bd f7 8d 36 bb
       -0.0020452978 -0.053159796 -0.03424291 -0.0027855614
0002c0 cc cd 1c bd 5f 7c 0c bd 79 29 81 3c 5b 48 33 bd
       -0.0382822 -0.034298297 0.015766846 -0.043770175
0002d0 15 19 8a 3d 9c 29 c1 bc 38 59 67 bd 57 e5 6f bd
       0.06743065 -0.023579411 -0.05648157 -0.058568325
0002e0 22 75 1e 3d fe 37 be bc 81 67 34 3d 73 df c0 bc
       0.038685925 -0.023220059 0.04404402 -0.023544049
0002f0 87 b3 6c bc 62 d9 37 3c f5 5c 6d 3d c4 49 27 bd
       -0.0144470995 0.011221262 0.05794998 -0.040841833
000300 2b 8a b9 bd 22 87 9b 3c d5 6c 83 bc fc 0c 91 3d
       -0.090595566 0.018985335 -0.016043106 0.07082555
000310 e3 3a 1e 3d 7e ad fd bc bc 8e 0b bd 1f 9b 9a 3d
       0.038630378 -0.030966517 -0.03407167 0.07549118
000320 5c d3 d1 bd 99 08 ae 3c f0 ce 7f bd a6 09 24 3d
       -0.10245392 0.021244334 -0.06245321 0.040048264
000330 e6 53 e0 bd 12 f1 77 bd ff 3a dc bd 75 0e 16 bc
       -0.10953502 -0.060532637 -0.1075344 -0.00915872
000340 c6 f5 86 bd 21 b1 8a 3d 54 7a 3d bd 06 e6 6c 3d
       -0.06589846 0.06772066 -0.04625924 0.057836555
000350 de 4d a6 bd f7 13 47 3d 3d 77 a3 ba 13 5c 76 3d
       -0.08120321 0.048603024 -0.0012471449 0.060146403
000360 ed 3b db bc 2b c2 f1 3c ae 16 f5 3d 07 03 41 3d
       -0.026761973 0.029511532 0.119672164 0.047122028
000370 b2 6f 9b bb b4 05 c6 3c 0d 85 33 ba 6b f9 b2 3c
       -0.0047435397 0.024172641 -0.0006848134 0.021847447
000380 2a ac 81 3d 87 0e 61 3d a0 bf 15 bd 9c c0 94 bd
       0.06331666 0.054945495 -0.0365597 -0.072633
000390 d2 6d b8 bd ed 1d 35 bc 24 5b 93 bd dd 53 a6 3d
       -0.090053216 -0.011054498 -0.07195118 0.081214644
0003a0 ca 16 9b 3d 4d e7 ad bd a9 46 4d 3d fc 7d 54 bc
       0.07572706 -0.08491383 0.050116215 -0.01296949
0003b0 12 8e c0 3c 25 75 8e 3d a2 c7 74 3c f5 eb 87 bd
       0.023505244 0.06955937 0.014940174 -0.06636802
0003c0 00 1d fc 3c 4a 34 0d bd a7 43 8d 3d 06 1d cc 3c
       0.030775547 -0.034473695 0.06897669 0.024916183
0003d0 4e 1d 3f 3c cd 51 a4 bd 41 57 70 3d f1 6a 02 bd
       0.011664702 -0.08023415 0.05867696 -0.03184027
0003e0 f7 ff 89 3d 62 af 23 3d a4 1f 18 bd ef d9 cd bb
       0.067382745 0.03996218 -0.03713955 -0.006282083
0003f0 b3 14 10 3d 9c 9a 54 bd a4 46 55 3b b3 26 69 bc
       0.03517599 -0.05190526 0.0032543326 -0.014230418

logvar.bias f4 [20]
000000 de cc a7 bd 8a ff 90 3b dd 39 01 bd 7b 3a a0 bc
       -0.08193372 0.004424994 -0.031549323 -0.019559136
000010 4f 93 ab bd 69 04 99 bd 34 e9 8d bd ae e3 c1 bd
       -0.08377706 -0.07471544 -0.069292456 -0.094672546
000020 bb fa b3 bc d3 db b8 bd c5 26 d3 bd 8c b1 a0 bd
       -0.021970144 -0.09026303 -0.10310129 -0.078463644
000030 88 9f 70 3b d1 e6 2b 3d bd 07 20 bb c3 ab 54 bd
       0.0036716182 0.04196817 -0.0024418675 -0.051921617
000040 93 bc 90 bd 1f e4 9c bd 68 94 31 3d 6c fd 01 3d
       -0.07067218 -0.07660698 0.04335442 0.031735823

decoder.0.weight f4 [128, 20]
000000 a7 51 55 be 07 79 f0 bd b5 67 f3 bd 28 8f 4a bd
       -0.20831929 -0.11741834 -0.11885015 -0.04945293
000010 13 af 3d 3d b8 d7 52 be ad 88 42 3c 46 09 75 bd
       0.046309542 -0.20590103 0.011873406 -0.059823297
000020 dc db f1 3d 4b 11 85 3d a0 42 4c 3d 7f 4e 91 3d
       0.11809513 0.06497439 0.049868226 0.0709505
000030 92 e5 72 3c 99 ca 49 be 56 c2 2b bc 3b 4f da bd
       0.014825242 -0.19706191 -0.010483345 -0.10659643
000040 bd 32 68 3d 3c 31 19 be 0c 82 3f be 43 95 3d bd
       0.056689013 -0.14960188 -0.18701953 -0.046284925
000050 da d3 e8 3d 60 81 49 be 64 48 ee 3c 87 fa 5e 3d
       0.113685325 -0.19678259 0.029087253 0.05443814
000060 4f ba 0c bd 91 ef af bc 96 74 53 be 4f 0a 7a bd
       -0.034357365 -0.021476539 -0.20649943 -0.061044987
000070 c5 1b 31 bd db 17 9c bd 43 5d 7d 3e ea 97 78 bd
       -0.043239374 -0.076217376 0.24742608 -0.06069175
000080 19 34 9b bd 65 ed 54 be 91 62 14 bd 07 c5 de 3d
       -0.07578296 -0.20793684 -0.036226813 0.10877424
000090 28 9b 40 be 81 53 2f 3e 1c c3 91 3d a0 07 19 3d
       -0.18809187 0.17121698 0.07117292 0.037360787
0000a0 06 20 bb bd 5a a0 39 3e 4f e2 2d bc 10 39 a0 bd
       -0.09136967 0.18127576 -0.010613038 -0.07823384
0000b0 c2 a8 1e 3e 73 26 ba 3d de 41 c1 bd ed b1 f6 3d
       0.15494063 0.09089365 -0.09436391 0.120456554
0000c0 ed e5 5f 3d 05 1c 88 3d 07 49 77 be 2a 8b 32 be
       0.054662634 0.06645969 -0.24148951 -0.174359
0000d0 73 32 56 be 32 09 0e 3d 39 14 c0 3c d7 fe 2c be
       -0.20917682 0.034676738 0.023447143 -0.16894089
0000e0 36 6c 1e be 84 39 40 3e e8 05 b4 3d 34 86 d6 3d
       -0.15470967 0.1877194 0.08790189 0.10474816
0000f0 45 90 58 3e 5b 19 1e 3d b3 49 28 3e d7 42 df 3d
       0.21148784 0.0385984 0.16434364 0.109014206
000100 9c 01 49 3e 03 ae 6c 3e 62 a5 54 3d b3 b4 17 3e
       0.1962952 0.23113255 0.051915534 0.14815025
000110 80 5c 48 be d3 66 35 be 4b 7f 59 3e 73 9b ce bd
       -0.19566536 -0.17715006 0.21239965 -0.10088243
000120 e3 a5 dd bd 26 23 2f bd f5 a3 c9 bc fb f4 53 3e
       -0.10822656 -0.04275813 -0.024614314 0.20698921
000130 ce 31 0a be 1d bf dc bd 00 8a e8 3d ed f2 19 be
       -0.13495561 -0.107786395 0.113544464 -0.15034075
000140 89 43 4e bd 43 c5 14 3e 12 18 42 be ea a4 ee 3d
       -0.050357375 0.14528374 -0.18954495 0.116525486
000150 e4 28 0b bb 18 b4 4a be 0c 2e 0f be 11 3f f8 3d
       -0.002123409 -0.19795263 -0.13982409 0.12121404
000160 d0 74 34 3e 77 d5 84 bd 14 74 e4 bc bc 83 3f 3b
       0.17622685 -0.06486028 -0.027887382 0.0029222807
000170 54 91 08 3e 87 2c af bd 0c c2 d8 3c b6 3d 30 3e
       0.13336688 -0.08553415 0.026459716 0.17211041
000180 27 7f 22 3e 70 b1 c5 bd 67 60 05 3e c3 18 11 3b
       0.15868817 -0.09652984 0.13025056 0.0022140003
000190 14 dd 8a 3c e0 5d b8 bd 52 05 bd 3d f9 53 85 3d
       0.016951121 -0.0900228 0.092295304 0.06510157
0001a0 20 e6 d4 3d 51 d1 b2 3d af 67 23 3e aa 91 c1 3d
       0.10395455 0.0873133 0.15957521 0.09451611
0001b0 91 d6 26 3e ee 5b 4e be 00 37 f9 bd 71 77 23 3e
       0.16292788 -0.20152256 -0.121686935 0.15963532
0001c0 b8 8c b4 3c 35 07 15 bd a2 7c 2e bd a7 d4 1a be
       0.022039756 -0.036383826 -0.042599328 -0.15120183
0001d0 5c d8 d8 bc 52 1e 32 be 0e 00 70 3d 70 53 36 be
       -0.026470356 -0.17394379 0.058593802 -0.17805266
0001e0 5d 5c cb 3d d4 07 14 be 10 e7 fe bc f1 a2 a4 bd
       0.09929726 -0.14456111 -0.031116039 -0.08038891
0001f0 2a 8b be bb 14 fa 15 3e a6 b0 f7 bd 6a ac c2 bd
       -0.0058149295 0.14646178 -0.1209424 -0.095055416
000200 f7 60 c4 3d 8c 07 3c 3e ab 4b 2c 3d ee 68 c7 3d
       0.09588807 0.18362254 0.04206435 0.097368106
000210 a7 8f 83 3d 63 b9 18 3e 21 d9 da bd 41 be 03 3e
       0.06423884 0.1491447 -0.10685945 0.12865545
000220 34 5f 22 be c6 67 54 bd 9a 24 e4 bd 8f d3 09 3e
       -0.1585663 -0.05185678 -0.11139794 0.1345961
000230 06 fb 8d bd a0 2e ff 3d 96 9a ba bc 46 c2 41 be
       -0.069326445 0.12460065 -0.02277879 -0.18921766
000240 f0 f6 e2 3d d6 a1 ae bc dc 94 3c 3e 5a 46 f8 ba
       0.11082256 -0.021317404 0.1841616 -0.0018941865
000250 0b 06 e4 bd a2 05 6b 3d eb e6 af 3d c9 2d b7 3d
       -0.11133965 0.05737842 0.08588966 0.0894428
000260 86 7e ce 3a de c9 54 be 24 93 2b 3e f3 23 55 3d
       0.001575426 -0.20780131 0.16755348 0.052036237
000270 95 2d 24 be c5 f3 17 3e 90 d6 40 3d f8 7a 33 bb
       -0.16033013 0.14839084 0.047079623 -0.0027386528
000280 cd 4a 36 3e 8a 30 d7 3d cf 1d 3f 3e ec bd 89 39
       0.17801972 0.10507305 0.18663715 0.0002627218
000290 3d 1a c3 bd 34 2d 0f be d7 d3 3a 3e 8a 85 99 3c
       -0.09526489 -0.13982087 0.18244873 0.018740434
0002a0 46 e8 a3 bc c7 72 43 bb db 76 c1 3d 85 b3 cb 3c
       -0.020008218 -0.0029823051 0.09446498 0.024865875
0002b0 02 83 2d 3d 68 96 93 3d 5c dd 4f 3d b7 6a 01 be
       0.042361267 0.07206422 0.050748214 -0.12638365
0002c0 1a 42 2c 3e 76 8a 7c 3d f5 e4 4a bd 10 e4 4a be
       0.1682209 0.061655484 -0.049534757 -0.19813561
0002d0 9d fb 03 3e 08 57 00 be 82 b7 12 3d e0 06 48 bd
       0.12888952 -0.125332 0.035819538 -0.04883468
0002e0 3a 00 c3 bd 04 dc 2d be 10 a0 82 bb 83 fe b6 bc
       -0.095215276 -0.1697846 -0.003986366 -0.022338158
0002f0 37 4f 8f 3c 73 f6 ad bd 53 6f 9a bd eb f3 a7 bd
       0.017493827 -0.08494272 -0.07540765 -0.082008205
000300 bc 47 89 3d 84 8b 00 be e9 78 31 3e 71 2a e4 bd
       0.06703135 -0.12553221 0.1733128 -0.111409076
000310 7a 3c 94 3d 11 ca d5 bd 28 ef 6b bd d9 cf 0c be
       0.072380975 -0.10438932 -0.057601124 -0.13751163
000320 b3 d1 da bc da 8b 0b 3e 9a b6 59 3e 79 70 df bd
       -0.02671132 0.13627568 0.21261063 -0.10910124
000330 4b 9a e6 bd a0 15 46 3c 90 07 e5 3d ec f7 88 bc
       -0.11259898 0.012090117 0.11183083 -0.01671978
000340 bd 6b dc 3d f3 f8 0a be 97 73 ba bd 01 27 4f 3e
       0.10762737 -0.13571529 -0.09104078 0.20229723
000350 a5 5d 64 bd f4 9e 4c 3e 09 93 06 be fb 6d 34 be
       -0.05575337 0.19982511 -0.13142027 -0.17620079
000360 80 4d 59 be 6c dd 32 be 33 83 42 3e 67 2f ec 3c
       -0.2122097 -0.17467278 0.18995361 0.028831197
000370 39 4c 15 be 65 3b b7 3d 84 82 55 be c2 bc 09 be
       -0.14579858 0.089468755 -0.20850569 -0.13450912
000380 5e 43 20 3e 1c ad 3b be aa c4 12 3e 3f 84 3b 3b
       0.15650699 -0.18327755 0.14332834 0.002861276
000390 09 cb 83 3c 3c 2e b7 bc bd d2 5d 3e 19 bb ea 3d
       0.016088026 -0.022360913 0.21662422 0.11461467
0003a0 3f 00 d2 3d 0f ad 89 bd 43 00 74 3c 96 91 23 3e
       0.10253953 -0.067224614 0.0148926405 0.15973505
0003b0 38 97 36 3e db 42 8a ba a0 85 ed 3c 4a fa 42 be
       0.17831123 -0.0010548489 0.028994381 -0.1904079
0003c0 83 89 0e be 2a 43 56 bd 57 68 fb 3d 0f 06 92 3d
       -0.13919644 -0.052310146 0.122757606 0.07130062
0003d0 29 81 39 3d 90 67 cf bc ba 1c 0e be 60 34 92 3d
       0.045289192 -0.025317937 -0.13878146 0.07138896
0003e0 c8 fb 23 be 22 08 52 be 67 66 88 3e fb 24 d3 3d
       -0.16014016 -0.20510915 0.26640627 0.10309788
0003f0 9d 06 47 be 7a 31 ba bc 75 f8 2c be 17 b7 19 3b
       -0.19436117 -0.02272867 -0.16891654 0.0023455077

decoder.0.bias f4 [128]
000000 81 6c 53 3e da 0a 33 3e 0a ae 42 be 3e 41 f1 bd
       0.2064686 0.17484608 -0.19011703 -0.11780022
000010 c1 21 14 be c6 b4 55 be 02 25 4a 3e 4e 26 1e be
       -0.14466001 -0.20869741 0.1974068 -0.154443
000020 65 25 49 be 35 13 04 3e d7 d1 4e 3e 4d 1a 49 bd
       -0.19643171 0.12897952 0.20197235 -0.049097348
000030 60 a8 3b 3e e0 d9 9d bd cf 20 30 be 76 c4 64 3b
       0.18325949 -0.07707572 -0.17200015 0.003490714
000040 ec df c8 3c 1f 23 31 3e 86 32 3b bc 31 8d 1b 3d
       0.024520837 0.17298554 -0.01142562 0.037976447
000050 f4 f5 05 be 2f ec 9f bd 13 37 e9 b8 88 95 9a bd
       -0.13082105 -0.0780872 -0.00011120564 -0.07548052
000060 0c 21 f4 3d 46 46 64 be ca ef c5 bd 0b eb b7 bd
       0.11920366 -0.22292432 -0.09664877 -0.08980378
000070 ca c0 8b 3d a8 61 8d bd b4 03 10 be 62 d0 21 3e
       0.06823881 -0.06903392 -0.14063913 0.15802148
000080 ed 04 44 3c 60 04 0a 3e 5a 5c 81 3d 2c 40 df 3d
       0.011964065 0.13478231 0.06316443 0.10900912
000090 09 b2 5b 3e e6 11 a3 bd 33 20 38 3e 9a 61 c3 3d
       0.21454634 -0.07962398 0.17981033 0.095401004
0000a0 93 d0 54 be 68 7d dc 3d 65 24 92 3d a2 5f 04 be
       -0.2078269 0.10766107 0.07135848 -0.12927106
0000b0 66 4b ea bd 8e 48 fc 3b f0 65 12 be 67 0c 54 be
       -0.11440162 0.007699079 -0.14296699 -0.20707856
0000c0 2f 79 4b 3e ef 68 cd 3d 4a c3 45 3d 0e 2e 54 be
       0.19870447 0.1002978 0.048281945 -0.20720693
0000d0 d6 f8 f1 bd 2c bf 27 bd 36 d2 49 be 44 0f 75 3e
       -0.1181504 -0.0409538 -0.19709095 0.23931605
0000e0 5c fa 5b bc 65 56 19 3c c5 75 eb bd 09 bd 98 bd
       -0.01342639 0.009358977 -0.11497072 -0.074579306
0000f0 71 70 31 3e c9 56 24 be 11 06 45 be 9d c1 f6 bb
       0.17328049 -0.16048731 -0.19240595 -0.0075304047
000100 f4 44 16 be d2 52 bd 3d 3e 74 18 be 4b 24 41 3e
       -0.14674741 0.09244312 -0.14888093 0.18861501
000110 92 a4 ea bc 7c 22 42 3d 82 f1 5c bb 25 82 db 3c
       -0.028642926 0.047396168 -0.0033713286 0.026795456
000120 ae a7 75 3e d2 38 9d bc b3 a8 8b 3d 3d 67 e3 3d
       0.23989746 -0.019192133 0.06819286 0.111036755
000130 09 cd 5b 3d a7 30 62 be 3b 2c 70 bd 9d ee 1d be
       0.053662334 -0.22088872 -0.05863593 -0.15423055
000140 02 2e 29 3e 5a c8 43 3e 8a 54 1c be 9f cb 4f be
       0.16521457 0.19119397 -0.15266624 -0.20292519
000150 49 ce a1 3d a9 84 b7 bd 40 27 d7 bc 40 39 06 bb
       0.07900674 -0.0896085 -0.026263833 -0.00204809
000160 63 51 17 3d 15 1e 88 bc 00 50 00 be ca 53 32 bc
       0.03694285 -0.016615907 -0.12530518 -0.010884235
000170 df 9d 68 3e c6 3a 6a bd ed 9d 2e bd ff 7c 3c bd
       0.22716473 -0.057184957 -0.04263108 -0.046017643
000180 ce 8f 27 3e 0e 80 28 be 82 73 db 3d d6 07 9f bd
       0.16363451 -0.16455099 0.10715391 -0.077651665
000190 81 30 66 3c 83 78 61 3e 3b 1d a8 bd d2 ca d2 3b
       0.01404965 0.22018628 -0.082087 0.0064328695
0001a0 b3 4c 6a 3d 4f f5 c2 3d 57 6b 4a be 38 fd 2f 3e
       0.057202052 0.09519445 -0.1976751 0.17186439
0001b0 97 14 6f 3e cb d5 81 3e 81 6f e2 bb 91 3a 84 3d
       0.23347698 0.25358424 -0.006910265 0.06456483
0001c0 9b 66 e9 3d f5 7d b4 3d a9 c3 42 3e 27 d3 e1 3d
       0.113965236 0.08813087 0.19019951 0.11026602
0001d0 44 bf a5 bd f3 db 0c be 8f 4e be bd 92 70 01 be
       -0.08093122 -0.13755779 -0.092923276 -0.12640598
0001e0 02 92 da bc 67 5f 2b 3e fa 98 77 bd e5 b0 43 3e
       -0.02668095 0.16735612 -0.060448624 0.19110449
0001f0 14 00 66 be 94 76 16 be 83 52 4c bd 60 13 4a 3e
       -0.22460967 -0.14693671 -0.049883377 0.19733953
